assets/models/voice_command_model.tflite (tflite, 203920 bytes, 11 tensors)

arith.constant4 f4 [128]
0	0x3c935660	0.017985523
1	0x3c89e012	0.016830478
2	0x3c9fd1f3	0.019509291
3	0x3d3a0a00	0.045419693
4	0x3d0c242e	0.03421419
5	0x3d479632	0.04872722
6	0x3c7158fd	0.014730689
7	0x3d059dd2	0.032621212
8	0x3d304ae6	0.04304018
9	0x3af56895	0.0018723184
10	0x3c98bb09	0.018643873
11	0x3cb809cf	0.022465615
12	0xbb880271	-0.0041506817
13	0x3c04b6c3	0.008100214
14	0xbc04882c	-0.0080891065
15	0x3d27f8ec	0.041008875
16	0x3d4a89f0	0.049447954
17	0x3c594f95	0.013263603
18	0x3c5b3394	0.013378996
19	0x3d0b945a	0.034077026
20	0xbcddf569	-0.02709456
21	0x3c772532	0.015084552
22	0x3d3f167f	0.046652313
23	0x3d119fa0	0.03555262
24	0x3da39814	0.07987991
25	0x3ce4e9b1	0.027943464
26	0xbc90bb33	-0.017667389
27	0x3db15f05	0.08660702
28	0x3cab6093	0.020920074
29	0x3d805c45	0.06267599
30	0x3d1da55e	0.038487785
31	0x3c178228	0.00924734
32	0x3ca58356	0.020204227
33	0x3c2c0a40	0.010500491
34	0xbcaac8fe	-0.020847794
35	0x3c5aaac1	0.013346375
36	0x3c1365bd	0.008996424
37	0x3d4c0d6f	0.0498175
38	0x3d560b14	0.05225666
39	0xbb843b88	-0.004035417
40	0x3d131502	0.035908706
41	0xbc90621f	-0.017624913
42	0x3c83a10d	0.016068006
43	0x3cdd1ade	0.02699035
44	0xbc9a29d1	-0.018818768
45	0x3d5b228c	0.053499743
46	0xbbd665a1	-0.006542877
47	0xbc9c6687	-0.019091858
48	0xbb8527c3	-0.004063578
49	0x3d644414	0.055728987
50	0x3d10fffd	0.03540038
51	0x3d8b1a3b	0.067921124
52	0x3cf31170	0.0296714
53	0x3d4dd30d	0.0502501
54	0x3ca784b5	0.020449022
55	0x38937f3f	7.033208e-05
56	0x3d53b93a	0.051690318
57	0x3ce53fe2	0.027984563
58	0xbceef000	-0.029167175
59	0x3c755731	0.014974401
60	0xbc16c71f	-0.009202748
61	0xbcc06c2c	-0.02348908
62	0xbcc1ee42	-0.02367318
63	0x3d515861	0.051109675
64	0xbcbf1f6d	-0.023330415
65	0x3c5e1abb	0.013556178
66	0x3cc1c2cf	0.023652462
67	0xbc014324	-0.007889543
68	0x3d854802	0.06507875
69	0x3c0ed2b2	0.008717226
70	0x3d06af04	0.03288175
71	0x3ce3f2c5	0.027825722
72	0x3cc04e9b	0.023474982
73	0xbb643898	-0.0034823772
74	0x3c1a0063	0.009399506
75	0xbc9d0410	-0.019166976
76	0x3d700168	0.05859509
77	0x3cca2a7a	0.024678458
78	0xbc2777f4	-0.01022147
79	0x3d3a20e0	0.04544151
80	0x3c60aa2e	0.013712449
81	0x3d6de46e	0.058079176
82	0x3d117ebe	0.03552126
83	0x3b1babb6	0.002375347
84	0xbc9e1e0e	-0.01930144
85	0xbc85bbcf	-0.016324906
86	0x3d3eff9f	0.046630498
87	0x3b6a659c	0.003576613
88	0x3d8e27e8	0.06941205
89	0xbcf8e55f	-0.03038281
90	0x3d1b5846	0.03792598
91	0xbcd001e6	-0.02539153
92	0xbc45db43	-0.012076202
93	0x3bfb1502	0.0076624164
94	0x3d9dcb09	0.077047415
95	0xbcb1ef8c	-0.02172067
96	0x3c9ed228	0.01938732
97	0x3d4f6fc7	0.05064371
98	0xbc825c2f	-0.015913097
99	0x3cc9f676	0.024653655
100	0xba0791ac	-0.0005171548
101	0x3d86eb5f	0.06587862
102	0x3d39ae0e	0.045332007
103	0x3b8c9647	0.0042903754
104	0x3c92d59c	0.017924123
105	0x3cde168e	0.027110364
106	0x3b25e57b	0.0025313783
107	0xbc77231f	-0.015084057
108	0x3d4021e7	0.04690733
109	0xbb6f6d6f	-0.0036533733
110	0x3b28a58d	0.0025733442
111	0x3d1d2254	0.038362816
112	0x3d234d38	0.039868563
113	0x3cc039fc	0.02346515
114	0xbcbe7914	-0.023251094
115	0xbcc31c79	-0.023817288
116	0xbc67f99b	-0.014158632
117	0x3d1c98f4	0.038231805
118	0x3d8ffc3f	0.07030534
119	0x3cb690a0	0.02228576
120	0xbc2d424e	-0.01057489
121	0x3cf89ede	0.030349191
122	0x3d27a517	0.040928926
123	0x3c81e0c1	0.015854241
124	0x3ca0f354	0.019647278
125	0xb9cb33b0	-0.00038757687
126	0xbc32bb61	-0.010908932
127	0x3d3bd369	0.045855913

arith.constant5 f4 [7]
0	0x3c82225a	0.01588552
1	0xbcb2195c	-0.021740608
2	0xbd740ffd	-0.05958556
3	0xbd2b4cc3	-0.041821253
4	0x3c480d77	0.0122102415
5	0xbd140bea	-0.036144175
6	0x3d908b2a	0.070577934

arith.constant6 f4 [7, 128]
0	0x3db09982	0.08623029
1	0x3d091239	0.033464644
2	0xbc311b28	-0.010809697
3	0x3d160fd9	0.036636207
4	0x3e139228	0.14411223
5	0xbe62f851	-0.22165038
6	0x3e11e001	0.14245607
7	0xbcd68c5b	-0.026189974
8	0x3bfcf6ef	0.0077198665
9	0xbe81d44b	-0.2535728
10	0xbd8e88aa	-0.0695966
11	0x3e661699	0.22469558
12	0xbdde8260	-0.10864711
13	0xbe18e78a	-0.14932075
14	0x3d3f5a97	0.046717253
15	0x3e63e655	0.22255833
16	0x3e21beaa	0.15795389
17	0xbdc510d7	-0.096223526
18	0x3e3aa21a	0.182259
19	0x3e59e85b	0.21280043
20	0x3d772c9b	0.060345273
21	0xbe6c69ff	-0.2308731
22	0xbdd248f7	-0.10267823
23	0x3bbc9237	0.005754735
24	0x3bf6139f	0.0075096632
25	0xbe5edb6c	-0.2176339
26	0xbd512713	-0.051062655
27	0x3dd402c0	0.10352087
28	0x3dffa7e8	0.124831975
29	0x3e112f81	0.14178278
30	0x3e853a9d	0.2602128
31	0xbe87bf49	-0.26513126
32	0x3dd019c6	0.10161166
33	0x3d694f2e	0.056960277
34	0xbd7b6651	-0.061376873
35	0xbd8584b9	-0.065194555
36	0xbe44ea52	-0.19230011
37	0xbdc2aecf	-0.09505998
38	0xbd83bb98	-0.06432265
39	0x3e1cb023	0.15301566
40	0xbe650afb	-0.2236747
41	0xbe3ddcc9	-0.18541254
42	0xbd05b12f	-0.03263968
43	0xbd05f23b	-0.032701712
44	0xbe47360f	-0.19454215
45	0xbd76f66c	-0.0602936
46	0xbe414c5c	-0.18876785
47	0xbe143094	-0.14471656
48	0xbc4734cf	-0.012158587
49	0xbe4e3ea9	-0.2014109
50	0xbe10c7e8	-0.14138758
51	0x3e21f261	0.15815116
52	0x3e0921e3	0.13391833
53	0x3e06898e	0.1313841
54	0x3e03e7c0	0.12881374
55	0x3df98194	0.12182918
56	0x3e1879ad	0.14890166
57	0x3e69fb21	0.22849704
58	0xbe5be931	-0.21475674
59	0xbd9ab79b	-0.07554551
60	0x3dd38e72	0.10329904
61	0xbd56cd69	-0.05244199
62	0xbdd0ce89	-0.101956435
63	0x3e42f508	0.19038785
64	0x3d533b90	0.051570475
65	0x3e21d34b	0.15803258
66	0xbe00dead	-0.12584944
67	0x3e18898b	0.14896218
68	0x3d862b81	0.065512665
69	0x3e2f7cc6	0.17137441
70	0xbe488d7f	-0.19585226
71	0x3e7e582f	0.24838327
72	0x3d84ac99	0.06478233
73	0x3b45c29e	0.0030175815
74	0xbdb94dfe	-0.09048079
75	0x3dbea21c	0.09308264
76	0xbe25782b	-0.16159122
77	0x3dc750f2	0.09732236
78	0xbd7a958d	-0.06117778
79	0x3d9d91af	0.076938026
80	0xbe22ac40	-0.1588602
81	0x3dcd9ceb	0.10039695
82	0x3d10b894	0.035332277
83	0x3aaf2a54	0.0013364055
84	0xbe38343e	-0.17988679
85	0xbe00e8f8	-0.1258887
86	0xbd78d701	-0.06075192
87	0x3dd36934	0.103228
88	0x3cfb18a6	0.030651402
89	0x3dfa7516	0.122293636
90	0xbe041c92	-0.12901524
91	0xbdca649f	-0.09882473
92	0x3dd64e0d	0.10464106
93	0x3e77be6e	0.24193737
94	0xbcdbffae	-0.026855316
95	0xbe07563d	-0.13216491
96	0x3e0735c6	0.13204107
97	0xbda30f9c	-0.079619616
98	0xbdf983c7	-0.12183338
99	0x3e55d944	0.20883662
100	0x3e2610c0	0.16217327
101	0x3dbeea1a	0.09321995
102	0xbd78c336	-0.060733043
103	0x3df8df66	0.12151985
104	0x3dfa6247	0.12225776
105	0x3e32ed2d	0.17473288
106	0xbe6e50a1	-0.23272945
107	0xbe15224b	-0.14563863
108	0x3d884d9e	0.06655429
109	0x3cdb64b8	0.026781425
110	0x3d6532e5	0.05595674
111	0xbe4f4898	-0.20242536
112	0xbe1559b9	-0.14585008
113	0x3e1967f4	0.14981061
114	0xbd6aee6c	-0.057356283
115	0xbe12e4ef	-0.14345144
116	0xbde81598	-0.11332244
117	0x3d02fe90	0.03198105
118	0x3e06f269	0.1317841
119	0xbe718e63	-0.23589472
120	0x3dfdad40	0.123865604
121	0xbda9bb79	-0.08287711
122	0xbe31e62f	-0.17372964
123	0x3e61c986	0.22049531
124	0xbe804b18	-0.25057292
125	0xbe6bf2dc	-0.23041862
126	0x3e21e87a	0.15811339
127	0x3dd6acb4	0.10482159
128	0xba348ef5	-0.00068877573
129	0xbe84631a	-0.25856858
130	0xbe7ea5a1	-0.2486787
131	0x3e237c36	0.15965351
132	0x3d0cd574	0.034383252
133	0x3e0ccf6b	0.13750999
134	0x3e08f957	0.13376366
135	0x3d4c8947	0.049935605
136	0xbe906dd7	-0.282088
137	0xbce21194	-0.027596273
138	0x3dc6e895	0.0971233
139	0xbdf084b2	-0.117440596
140	0xbc61234d	-0.0137413265
141	0x3d0cc825	0.03437056
142	0x3e3f3f20	0.18676424
143	0xbe86f7fe	-0.26361078
144	0xbd6d4f9e	-0.057937257
145	0x3e18f502	0.14937213
146	0x3d9fb7f6	0.0779876
147	0xbe30f9b7	-0.17282759
148	0x3e199a1f	0.15000199
149	0x3d09f5e9	0.033681784
150	0x3d8090bb	0.06277605
151	0x3e39dd23	0.18150763
152	0xbdf1cbe1	-0.11806465
153	0x3dc87487	0.09787851
154	0xbd23f71b	-0.04003058
155	0xbe0d3916	-0.13791308
156	0xbe434530	-0.19069362
157	0xbc89ece2	-0.016836587
158	0xbe345a74	-0.1761263
159	0x3dcc006c	0.09961018
160	0xbd6df7e7	-0.058097746
161	0x3db99af1	0.09062756
162	0xbcfeb831	-0.031093689
163	0x3df92fb7	0.12167304
164	0x3dc802bc	0.097661465
165	0xbcedb376	-0.029016238
166	0x3d9db878	0.077012
167	0x3dd0840d	0.10181437
168	0x3c88e123	0.016708916
169	0xbc9c1ce4	-0.019056745
170	0xbe0b20ab	-0.1358668
171	0x3e6b9b25	0.23008402
172	0xbbf9043c	-0.0075993817
173	0xbe12f824	-0.1435247
174	0xbe080519	-0.13283195
175	0xbc68cacc	-0.014208507
176	0x3e57e174	0.21082097
177	0x3e52d01b	0.20587198
178	0x3b42aabc	0.0029703816
179	0xbd0efe7e	-0.03491067
180	0xbe17337c	-0.14765733
181	0x3c582b48	0.013193913
182	0xbe01bb1c	-0.12669033
183	0x3d461ff9	0.048370335
184	0x3b084517	0.0020793134
185	0x3d655b73	0.055995416
186	0x3d714b53	0.058909725
187	0xbdc3224d	-0.09528027
188	0xbd4b57e7	-0.049644377
189	0x3e270c1f	0.16313218
190	0x3cd2b510	0.025721103
191	0x3e0d14cd	0.13777466
192	0xbe4ae7ee	-0.19815037
193	0x3e045672	0.12923601
194	0xbe58b43a	-0.21162501
195	0xbe58a843	-0.21157937
196	0xbe92ec89	-0.28696087
197	0xbd91090a	-0.07081802
198	0x3d50541c	0.050861463
199	0xbe207e51	-0.15673186
200	0xbe4c4964	-0.19949871
201	0x3e7b4a0a	0.24539962
202	0xbcdd986d	-0.027050221
203	0x3e40451c	0.18776363
204	0xbdef48ba	-0.11683793
205	0xbe526dfb	-0.20549767
206	0x3da41b99	0.08013076
207	0x3d48df60	0.049041152
208	0x3cff7779	0.031184899
209	0xbe429a30	-0.1900413
210	0x3e02ff0d	0.12792607
211	0x3e8241ee	0.25440925
212	0x3d8bfaf8	0.06834978
213	0xbe438bc0	-0.19096279
214	0xbdbe570f	-0.09293949
215	0x3e3c87f8	0.18411243
216	0xbe1c441f	-0.15260361
217	0x3dcc7e2f	0.09985005
218	0xbe799367	-0.24372636
219	0xbe76a4db	-0.24086325
220	0xbdc1d879	-0.09465117
221	0x3dbc8119	0.09204311
222	0x3d188566	0.037236594
223	0xbe065873	-0.13119678
224	0xbd8e3356	-0.06943385
225	0x3c0c9b42	0.008581938
226	0x3e7469f9	0.2386855
227	0x3e400ba6	0.18754444
228	0x3db97873	0.09056177
229	0xbdfa7003	-0.12228396
230	0xbe8cf0e4	-0.27527535
231	0x3de47141	0.11154414
232	0xbdb7524e	-0.08951245
233	0x3e366a95	0.17814095
234	0x3c8fb892	0.017544065
235	0x3e68e55f	0.22743748
236	0xbe8fcf04	-0.28087628
237	0x3e7c151f	0.24617432
238	0xbe3a9ff2	-0.18225077
239	0x3dc084ab	0.094003044
240	0xbe6d2645	-0.2315913
241	0xbdd49a64	-0.1038101
242	0x3b4e4942	0.003147677
243	0x3e32021d	0.17383619
244	0xbdf123fa	-0.1177444
245	0xbe88e518	-0.26737285
246	0xbdcdd07a	-0.100495294
247	0x3d81203d	0.06304977
248	0xbd0324ae	-0.032017402
249	0x3e165eae	0.14684555
250	0xbe470cac	-0.19438428
251	0x3dc06cf8	0.09395784
252	0xbe09b438	-0.13447654
253	0xbdeefad8	-0.116689384
254	0xbe23131e	-0.15925261
255	0x3c15899b	0.009127046

arith.constant7 f4 [64]
0	0xbcabaa97	-0.020955367
1	0xbd223c25	-0.03960814
2	0xbc370d8d	-0.011172664
3	0x3c5a4475	0.0133219855
4	0xba0b6467	-0.00053173903
5	0xbc4e5a4a	-0.012594769
6	0xbb53b038	-0.003230108
7	0xbc49c06e	-0.012313945
8	0x3bd9e6b0	0.0066498145
9	0xbcb22f48	-0.021751061
10	0xbc88d86f	-0.016704766
11	0x3b4ba14d	0.0031071485
12	0xbc479176	-0.012180677
13	0xbc535a9a	-0.012900019
14	0xbc2067af	-0.009790345
15	0xbbf3ae5f	-0.007436558
16	0xbc708c85	-0.01468194
17	0xbc345acb	-0.011007975
18	0x3c668b8c	0.0140713565
19	0xbbbe6705	-0.0058106207
20	0x3c6ddb09	0.014517554
21	0x3c6e63a1	0.014550121
22	0x3aff51e4	0.0019479361
23	0xbc781b9a	-0.0151432995
24	0x3c3e1342	0.011601271
25	0x3bd16919	0.0063907024
26	0xb901ce44	-0.00012379239
27	0x3bee03c7	0.007263634
28	0x3b81c48e	0.0039601987
29	0xbbad8c16	-0.0052962406
30	0xbc60addc	-0.013713326
31	0x3c38c3dc	0.011277165
32	0x3b4c1a4d	0.0031143606
33	0x3ca14eb1	0.019690843
34	0x3c3bc7e0	0.011461228
35	0xbbf93e0f	-0.007606275
36	0x3cf31ddb	0.029677322
37	0xbc781757	-0.015142283
38	0xbc7e3913	-0.015516537
39	0xbd028590	-0.031865656
40	0xbc2a1d64	-0.010382984
41	0xbc1a90ab	-0.009433906
42	0xbc1d8343	-0.009613815
43	0x3c83012d	0.015991772
44	0x3ca0da54	0.019635357
45	0x3c98fd41	0.018675448
46	0xbc8afe2d	-0.016966904
47	0x3c98516a	0.018593509
48	0x3c2bdda8	0.010489859
49	0xbaa2ba3a	-0.0012415119
50	0xbaec9431	-0.0018049536
51	0xbce2da6b	-0.02769204
52	0x3c9d1626	0.0191756
53	0x3c7db674	0.015485395
54	0xbbd6fa2b	-0.006560584
55	0x3a8adcb5	0.001059434
56	0xbc20edc1	-0.00982231
57	0x3bac8fdb	0.0052661723
58	0x3ca0c680	0.019625902
59	0x3cc17da5	0.023619482
60	0x3bbe00ee	0.0057984507
61	0x3c0361f9	0.008018964
62	0xbb80dbee	-0.0039324677
63	0x3c1f6db5	0.009730746

arith.constant8 f4 [128]
0	0x3a9600e6	0.001144436
1	0x3be958b7	0.0071211713
2	0x3b96b952	0.0045997286
3	0x3b17c3ac	0.00231574
4	0x3bd23b94	0.0064157937
5	0x3c37eb05	0.011225467
6	0xbbae30b2	-0.0053158635
7	0x3c15b97d	0.009138462
8	0x3c55fb32	0.013060378
9	0x3ace79b9	0.0015752829
10	0x3a7ceb71	0.00096481206
11	0x3c781e67	0.015143967
12	0x3c93e3bc	0.018052928
13	0x3bd36f0d	0.0064524473
14	0x3bd1e457	0.006405394
15	0x3baccc1b	0.0052733547
16	0x3bb28ca3	0.005448894
17	0x3bc31b97	0.0059542167
18	0x3c1d52f1	0.009602294
19	0x3bb28303	0.0054477467
20	0xba2c627e	-0.0006575956
21	0x3c2fe4b0	0.010735676
22	0xbb836462	-0.0040097693
23	0x3bbe9d5e	0.0058170995
24	0xbaf6c645	-0.00188274
25	0x3c5eb0a6	0.013591921
26	0x3ad0c86a	0.0015928869
27	0xb9d4c75b	-0.00040584322
28	0x3b9b4a01	0.0047390466
29	0xbb8af791	-0.004240938
30	0xbb862931	-0.004094266
31	0x3c3f305d	0.011669246
32	0x3c07dbe3	0.008292171
33	0xbb85e575	-0.0040861913
34	0x3af8eb52	0.0018991029
35	0x3c05529e	0.008137373
36	0x3b6a20a1	0.0035725015
37	0x3c660abe	0.014040647
38	0x3c5c5823	0.013448748
39	0x3c891914	0.016735591
40	0xbb709059	-0.0036707132
41	0xbb96da9e	-0.004603698
42	0x3c90b3eb	0.017663917
43	0x398915f2	0.00026147027
44	0x3b9239e3	0.004462467
45	0x3c109f6f	0.008827074
46	0x3bd2748b	0.0064225844
47	0x3ac377f2	0.0014913066
48	0x3bb98ef5	0.0056627938
49	0xbb8396d3	-0.0040157824
50	0x3b1d5f0a	0.0024012947
51	0x3ad1c588	0.0016004303
52	0x3c612aca	0.013743112
53	0x3c56f65b	0.013120259
54	0x3c714805	0.014726643
55	0x3c9526d7	0.018206997
56	0x3bf8c6a5	0.0075920396
57	0x3c6038e9	0.013685443
58	0xbaa78acb	-0.0012782452
59	0xbb263d7a	-0.0025366233
60	0xbc02d13d	-0.007984457
61	0x3aa85528	0.0012842761
62	0xb9898774	-0.00026231597
63	0x3b67284a	0.0035271817
64	0xbbf1f09d	-0.0073834197
65	0x3bf8c392	0.007591673
66	0x3ba85fc5	0.0051383697
67	0x3be18c36	0.0068831695
68	0x3b6fc14e	0.0036583724
69	0x3ba9eda1	0.0051857983
70	0x3bde1801	0.006777764
71	0x3c41dac5	0.011831944
72	0x3c81ee29	0.015860634
73	0xbbac46d3	-0.0052574663
74	0x3cde593e	0.027142163
75	0x3c64aa7c	0.013956662
76	0xb9e66cc1	-0.00043950047
77	0x3ba299ee	0.0049621975
78	0x3be86b53	0.007092872
79	0x3bf4144c	0.0074487086
80	0x3aad22d0	0.0013209227
81	0x3b3ac12d	0.002849649
82	0x3b4698d6	0.00303035
83	0x3bdb8ac3	0.0066998913
84	0xbb8716be	-0.004122584
85	0x3b26ba30	0.0025440566
86	0x39364b48	0.00017384917
87	0x3ba4d9cb	0.0050308458
88	0xbc0d8f36	-0.008640101
89	0x3c584bd4	0.013201673
90	0x3bc4b512	0.0060030306
91	0x3b9ea9c6	0.004842016
92	0x3b08bc14	0.0020864056
93	0x3c6b2a9e	0.014353422
94	0x3c7aa0b3	0.015297103
95	0x3c023199	0.007946395
96	0x3bdb962b	0.006701251
97	0x3b5494ad	0.003243725
98	0x3c761ba4	0.0150212385
99	0x3bcb4529	0.006203313
100	0xbad557a9	-0.0016276735
101	0x3bc741fd	0.0060808645
102	0xbb00a199	-0.001962757
103	0xbbe812da	-0.0070823254
104	0x3c3ff225	0.011715447
105	0x3aa72efc	0.0012755091
106	0x3b48f4c1	0.0030663463
107	0x3c12307f	0.008922695
108	0x39e62944	0.00043899764
109	0x3ba19496	0.004931043
110	0x3b87ef52	0.0041484023
111	0x3c1fbb5a	0.009749258
112	0x3b2ef1f2	0.0026694504
113	0x3b502025	0.003175744
114	0xb98c60ec	-0.00026775093
115	0x3bb9a353	0.0056652217
116	0x3c114a53	0.008867818
117	0x3a9df46a	0.001205099
118	0xb8df3b42	-0.00010644506
119	0x3aa93ce5	0.0012911825
120	0x3c2e226f	0.010628327
121	0x3c58da0e	0.013235582
122	0xba9f9dfc	-0.001217782
123	0xbb756671	-0.0037445093
124	0x3b56dd1c	0.00327856
125	0xbb546867	-0.0032410861
126	0xbba8cc5e	-0.0051513156
127	0xbbfeef86	-0.0077800183

arith.constant9 f4 [128]
0	0xbc0e18d6	-0.008672914
1	0x3b14b217	0.0022689158
2	0xbbaa476a	-0.0051965015
3	0x3b3424b4	0.0027487697
4	0xbb57613d	-0.0032864355
5	0x3b45825c	0.0030137515
6	0xbafc8109	-0.001926453
7	0x3be0a604	0.006855728
8	0x3c08288f	0.008310451
9	0x3c0ef531	0.00872545
10	0xbb9ad449	-0.0047250134
11	0xbb82d4e8	-0.0039926656
12	0xbbf3f2d7	-0.0074447202
13	0xbc63bf6f	-0.013900622
14	0x39099938	0.00013122417
15	0xb90126a8	-0.00012316799
16	0x3b50fcfd	0.0031889074
17	0xbc0bb428	-0.008526839
18	0x3b062e64	0.0020474428
19	0x3c14c251	0.009079532
20	0x3ba4c5ad	0.0050284476
21	0x3b94483c	0.0045252126
22	0xbd056db6	-0.03257533
23	0x3b96d8ba	0.0046034725
24	0xbc1106b8	-0.0088516995
25	0xbbba384e	-0.0056829816
26	0x3b2297ff	0.0024809835
27	0xba04a2b8	-0.00050596474
28	0x3a669f4d	0.00087975414
29	0xbb2e9c1b	-0.002664334
30	0x3af08d22	0.0018352608
31	0x3adb60d7	0.0016737235
32	0xbc10ff07	-0.008849866
33	0xbb81f47c	-0.0039659124
34	0xbc309747	-0.010778255
35	0x3bab2f59	0.00522415
36	0x3c1f6df1	0.009730802
37	0x3c53f9db	0.012937988
38	0xbbcf13f3	-0.006319517
39	0x3b91b05c	0.0044460725
40	0x3b1c074a	0.0023808056
41	0x3aac241b	0.0013133319
42	0xbc5b7a42	-0.013395848
43	0x3c2d56c0	0.010579765
44	0xbae5a68d	-0.001752095
45	0xbc267aeb	-0.010161142
46	0xbb910971	-0.0044261743
47	0xba661377	-0.0008776704
48	0x3c0a2e63	0.008433911
49	0x3c189515	0.009312888
50	0x39b38db7	0.00034247126
51	0xbc00902b	-0.007846872
52	0x3b9ba4f2	0.0047498876
53	0xbc288117	-0.010284684
54	0xbbf11f8f	-0.0073584984
55	0xbbe93890	-0.0071173385
56	0xbbae32d6	-0.0053161187
57	0x3af2c90e	0.0018523054
58	0xbc3669af	-0.011133595
59	0xbc15b9b9	-0.009138518
60	0x3b37688d	0.00279859
61	0x3b41d0b4	0.002957386
62	0xbaa5c763	-0.0012647923
63	0x3bf701d4	0.0075380597
64	0x3beca75f	0.0072221006
65	0x3b722c09	0.0036952517
66	0x3b56d50d	0.0032780797
67	0x3bbad4be	0.0057016304
68	0x3bf224ab	0.007389625
69	0xbb051b3e	-0.0020310427
70	0xbc55a88a	-0.013040671
71	0x3bfe38f2	0.0077582533
72	0xbbde15e3	-0.0067775114
73	0x3ba2a3be	0.0049633672
74	0x3ad3c07b	0.0016155386
75	0x3a957cc3	0.001140498
76	0xba4e1149	-0.0007860852
77	0xbb61a65f	-0.003443144
78	0xbad6b140	-0.0016379729
79	0xbc0014b6	-0.007817438
80	0xba7cc7b3	-0.00096427946
81	0xbc0974f0	-0.0083896965
82	0x3bd02e96	0.0063532097
83	0xbbbbd3c3	-0.005732031
84	0x3b9e8c54	0.0048385058
85	0xb87856b3	-5.9208553e-05
86	0xbaf7f80a	-0.0018918526
87	0xbb6c1255	-0.003602167
88	0xbc3ca3e7	-0.011513687
89	0xba934b19	-0.0011237591
90	0x3bed63b0	0.0072445497
91	0xbb380ee7	-0.0028085054
92	0xbad1be2a	-0.0016002108
93	0xbb434560	-0.002979599
94	0xba133150	-0.0005614953
95	0x3be31877	0.0069304067
96	0x3bbc181b	0.0057401783
97	0xba2e609f	-0.0006651971
98	0xbcc3283b	-0.023822894
99	0xbaecd568	-0.0018068971
100	0xbab42cef	-0.0013746301
101	0xbbf25bfb	-0.007396219
102	0x3b9d1444	0.0047936756
103	0x3c01d549	0.007924386
104	0x3bde4766	0.0067834137
105	0x3b387d31	0.0028150792
106	0x3a3942da	0.00070671516
107	0xbc20e5fd	-0.0098204585
108	0x3be1c1ad	0.006889543
109	0xbc5f2d9e	-0.013621716
110	0xbbf33816	-0.0074224574
111	0xbbb341c6	-0.0054704873
112	0x3b0396cb	0.0020078893
113	0x3a93cee1	0.0011276865
114	0xbb247429	-0.002509365
115	0x3a07fb11	0.0005187253
116	0xbb0f2ab3	-0.002184552
117	0x3c091fb2	0.008369373
118	0xbc09614d	-0.008385015
119	0xbbb36892	-0.0054751122
120	0x3bd160b1	0.0063897003
121	0xbbcd6d48	-0.006269131
122	0x3b54911d	0.0032435127
123	0x3c319b95	0.010840316
124	0x396488e4	0.0002179477
125	0x3ad258ba	0.0016048171
126	0x389af019	7.388014e-05
127	0x3aba9c12	0.0014237186

tfl.pseudo_qconst i1 [64, 1, 7, 128]
0	0x20	32
1	0x90	-112
2	0x10	16
3	0x96	-106
4	0x5d	93
5	0x8a	-118
6	0xf4	-12
7	0xff	-1
8	0xd5	-43
9	0xeb	-21
10	0x4c	76
11	0xde	-34
12	0x36	54
13	0xf9	-7
14	0xc6	-58
15	0x19	25
16	0xd3	-45
17	0xa4	-92
18	0xe1	-31
19	0x18	24
20	0x0b	11
21	0xd2	-46
22	0xfb	-5
23	0xe6	-26
24	0xac	-84
25	0x1c	28
26	0xaf	-81
27	0x3b	59
28	0x44	68
29	0x18	24
30	0x45	69
31	0x1d	29
32	0x4c	76
33	0x08	8
34	0x16	22
35	0x50	80
36	0x96	-106
37	0xbd	-67
38	0xc0	-64
39	0xf2	-14
40	0xac	-84
41	0x4d	77
42	0xd3	-45
43	0x14	20
44	0xfe	-2
45	0x08	8
46	0xf2	-14
47	0xe8	-24
48	0xce	-50
49	0x4c	76
50	0xb7	-73
51	0xf9	-7
52	0x1d	29
53	0xb6	-74
54	0x14	20
55	0x2d	45
56	0xd5	-43
57	0xf6	-10
58	0xef	-17
59	0xf4	-12
60	0x3a	58
61	0xf7	-9
62	0x10	16
63	0x81	-127
64	0x01	1
65	0xbb	-69
66	0x5c	92
67	0xf8	-8
68	0xd3	-45
69	0xc3	-61
70	0xdf	-33
71	0x94	-108
72	0x1f	31
73	0xf5	-11
74	0xfd	-3
75	0xa6	-90
76	0x31	49
77	0xd7	-41
78	0xe0	-32
79	0xa4	-92
80	0xbf	-65
81	0x41	65
82	0xfc	-4
83	0x36	54
84	0xb5	-75
85	0xff	-1
86	0xa4	-92
87	0xd6	-42
88	0x50	80
89	0xeb	-21
90	0xd4	-44
91	0xf7	-9
92	0xda	-38
93	0x29	41
94	0xc9	-55
95	0x48	72
96	0xc7	-57
97	0xb4	-76
98	0xee	-18
99	0xb3	-77
100	0x38	56
101	0xf2	-14
102	0x1e	30
103	0x11	17
104	0x25	37
105	0xdd	-35
106	0x28	40
107	0xf2	-14
108	0xd5	-43
109	0xe3	-29
110	0xf1	-15
111	0x03	3
112	0xa0	-96
113	0xdb	-37
114	0xfb	-5
115	0xe9	-23
116	0xbb	-69
117	0x33	51
118	0x08	8
119	0xc3	-61
120	0xb2	-78
121	0x13	19
122	0x99	-103
123	0xac	-84
124	0xe5	-27
125	0x08	8
126	0xbd	-67
127	0x02	2
128	0x12	18
129	0xaa	-86
130	0x69	105
131	0xce	-50
132	0x44	68
133	0xba	-70
134	0x1f	31
135	0x1d	29
136	0xab	-85
137	0xf2	-14
138	0xdb	-37
139	0xdc	-36
140	0x06	6
141	0xc3	-61
142	0xfd	-3
143	0xe0	-32
144	0x9c	-100
145	0xc8	-56
146	0xff	-1
147	0x49	73
148	0xb2	-78
149	0x2a	42
150	0xb9	-71
151	0xc6	-58
152	0xeb	-21
153	0xec	-20
154	0xf4	-12
155	0xf9	-7
156	0x2e	46
157	0xdd	-35
158	0x23	35
159	0x02	2
160	0x1c	28
161	0x2d	45
162	0xec	-20
163	0x38	56
164	0xa8	-88
165	0xb6	-74
166	0x14	20
167	0x9b	-101
168	0xc6	-58
169	0xe1	-31
170	0xc0	-64
171	0xed	-19
172	0x95	-107
173	0xad	-83
174	0x28	40
175	0xc2	-62
176	0xbb	-69
177	0xe5	-27
178	0xc6	-58
179	0xf4	-12
180	0xd5	-43
181	0x0f	15
182	0x03	3
183	0x23	35
184	0xf1	-15
185	0xba	-70
186	0xc5	-59
187	0x3f	63
188	0x32	50
189	0x9b	-101
190	0xe8	-24
191	0xcd	-51
192	0xe9	-23
193	0xc1	-63
194	0x49	73
195	0x43	67
196	0xe1	-31
197	0xc6	-58
198	0x07	7
199	0xbb	-69
200	0xf7	-9
201	0x04	4
202	0x0f	15
203	0xaf	-81
204	0x1c	28
205	0xdf	-33
206	0x66	102
207	0xc6	-58
208	0xef	-17
209	0xfc	-4
210	0xc3	-61
211	0x1d	29
212	0xc4	-60
213	0xcb	-53
214	0x92	-110
215	0x1f	31
216	0xf3	-13
217	0xbe	-66
218	0xdc	-36
219	0xee	-18
220	0xde	-34
221	0x07	7
222	0xd9	-39
223	0xea	-22
224	0xe2	-30
225	0xc2	-62
226	0xce	-50
227	0xe1	-31
228	0x23	35
229	0x9e	-98
230	0x3d	61
231	0xf3	-13
232	0xed	-19
233	0x0a	10
234	0x22	34
235	0x1a	26
236	0xb3	-77
237	0xb4	-76
238	0x1b	27
239	0x06	6
240	0xcf	-49
241	0xf9	-7
242	0xa5	-91
243	0xb1	-79
244	0xba	-70
245	0x12	18
246	0x97	-105
247	0x0b	11
248	0x9e	-98
249	0x38	56
250	0xd1	-47
251	0xb3	-77
252	0xab	-85
253	0xee	-18
254	0xd0	-48
255	0x13	19

tfl.pseudo_qconst1 i1 [128, 1, 5, 128]
0	0x39	57
1	0x24	36
2	0xf1	-15
3	0xc8	-56
4	0xf9	-7
5	0xeb	-21
6	0xdc	-36
7	0x15	21
8	0x1b	27
9	0x03	3
10	0x46	70
11	0x64	100
12	0xe3	-29
13	0x4b	75
14	0xb5	-75
15	0xca	-54
16	0x01	1
17	0xf0	-16
18	0x24	36
19	0x0b	11
20	0xfc	-4
21	0x24	36
22	0xe5	-27
23	0xe9	-23
24	0xea	-22
25	0xe2	-30
26	0xf9	-7
27	0x36	54
28	0x09	9
29	0xd7	-41
30	0xfa	-6
31	0x01	1
32	0x2a	42
33	0x1f	31
34	0x5a	90
35	0xec	-20
36	0xd5	-43
37	0x2c	44
38	0xd4	-44
39	0xdd	-35
40	0xf5	-11
41	0xf5	-11
42	0x14	20
43	0x40	64
44	0xf5	-11
45	0x54	84
46	0x51	81
47	0x34	52
48	0x38	56
49	0x1b	27
50	0xec	-20
51	0x1d	29
52	0x2c	44
53	0x0f	15
54	0xdd	-35
55	0x26	38
56	0xf5	-11
57	0xfc	-4
58	0xd5	-43
59	0x04	4
60	0xf8	-8
61	0x32	50
62	0x69	105
63	0xe4	-28
64	0x44	68
65	0x21	33
66	0x0a	10
67	0x31	49
68	0x3d	61
69	0x05	5
70	0x16	22
71	0x2c	44
72	0x05	5
73	0xf9	-7
74	0xd9	-39
75	0x15	21
76	0x09	9
77	0xf6	-10
78	0x0c	12
79	0x31	49
80	0x4a	74
81	0x1a	26
82	0x20	32
83	0x12	18
84	0x4c	76
85	0xa5	-91
86	0x2a	42
87	0xf5	-11
88	0x06	6
89	0x29	41
90	0xeb	-21
91	0xdb	-37
92	0xc4	-60
93	0xfc	-4
94	0xe8	-24
95	0xbc	-68
96	0x22	34
97	0x33	51
98	0x67	103
99	0x07	7
100	0xfe	-2
101	0x1a	26
102	0xdf	-33
103	0x00	0
104	0x54	84
105	0x20	32
106	0xe1	-31
107	0xbb	-69
108	0x50	80
109	0xe6	-26
110	0x13	19
111	0xdf	-33
112	0x29	41
113	0xec	-20
114	0x11	17
115	0xca	-54
116	0x1d	29
117	0x08	8
118	0x33	51
119	0x04	4
120	0x23	35
121	0xdc	-36
122	0x03	3
123	0x09	9
124	0xfc	-4
125	0xfb	-5
126	0xe4	-28
127	0xea	-22
128	0xe9	-23
129	0x15	21
130	0x2a	42
131	0xfe	-2
132	0x32	50
133	0x2e	46
134	0xf4	-12
135	0xda	-38
136	0xc9	-55
137	0xe1	-31
138	0xd8	-40
139	0x37	55
140	0xcb	-53
141	0xe6	-26
142	0x0e	14
143	0xae	-82
144	0x2b	43
145	0xda	-38
146	0x21	33
147	0x09	9
148	0x03	3
149	0x25	37
150	0xf6	-10
151	0xdf	-33
152	0xdc	-36
153	0x15	21
154	0xf3	-13
155	0x26	38
156	0xea	-22
157	0x0a	10
158	0xfb	-5
159	0x22	34
160	0x00	0
161	0x18	24
162	0x1b	27
163	0x43	67
164	0xe3	-29
165	0x4c	76
166	0xfc	-4
167	0x1c	28
168	0xdf	-33
169	0xf0	-16
170	0x05	5
171	0xe1	-31
172	0x16	22
173	0x41	65
174	0x02	2
175	0xd2	-46
176	0x1d	29
177	0xf8	-8
178	0x01	1
179	0xd7	-41
180	0x38	56
181	0x05	5
182	0xfe	-2
183	0x22	34
184	0x0d	13
185	0xd3	-45
186	0x0d	13
187	0xd3	-45
188	0x38	56
189	0x04	4
190	0xe8	-24
191	0x0a	10
192	0x4c	76
193	0x22	34
194	0xfd	-3
195	0xdd	-35
196	0x1f	31
197	0x17	23
198	0xfa	-6
199	0xc6	-58
200	0x0f	15
201	0x05	5
202	0xde	-34
203	0x2c	44
204	0xdc	-36
205	0x31	49
206	0x10	16
207	0x03	3
208	0x6d	109
209	0x19	25
210	0x00	0
211	0xcd	-51
212	0x27	39
213	0xbe	-66
214	0xcc	-52
215	0xea	-22
216	0xfd	-3
217	0xe5	-27
218	0x20	32
219	0xf3	-13
220	0xff	-1
221	0x1b	27
222	0xda	-38
223	0xcd	-51
224	0x14	20
225	0xf4	-12
226	0x6e	110
227	0x09	9
228	0xbb	-69
229	0x08	8
230	0xf1	-15
231	0xea	-22
232	0x0b	11
233	0x21	33
234	0xf1	-15
235	0xee	-18
236	0x12	18
237	0x25	37
238	0x0f	15
239	0xd0	-48
240	0x32	50
241	0x22	34
242	0x09	9
243	0xbf	-65
244	0xdb	-37
245	0x1e	30
246	0x0a	10
247	0xf2	-14
248	0x7f	127
249	0xfc	-4
250	0xcf	-49
251	0x36	54
252	0x0f	15
253	0x37	55
254	0xee	-18
255	0xd7	-41

tfl.pseudo_qconst2 i1 [128, 1, 3, 64]
0	0xa7	-89
1	0xb3	-77
2	0xc8	-56
3	0xc8	-56
4	0xe4	-28
5	0xed	-19
6	0x54	84
7	0x98	-104
8	0x42	66
9	0x66	102
10	0x1a	26
11	0xf5	-11
12	0x21	33
13	0xc9	-55
14	0x31	49
15	0x29	41
16	0x05	5
17	0x24	36
18	0xf0	-16
19	0x1d	29
20	0x17	23
21	0xf9	-7
22	0xaa	-86
23	0x5e	94
24	0xe5	-27
25	0x13	19
26	0xb6	-74
27	0xcb	-53
28	0xdc	-36
29	0xfe	-2
30	0x49	73
31	0x23	35
32	0xd9	-39
33	0xb7	-73
34	0xd0	-48
35	0xbf	-65
36	0x22	34
37	0x81	-127
38	0x95	-107
39	0xdd	-35
40	0x14	20
41	0xd2	-46
42	0x9c	-100
43	0x2e	46
44	0xf6	-10
45	0xdc	-36
46	0x01	1
47	0x33	51
48	0x00	0
49	0xf0	-16
50	0x18	24
51	0xe0	-32
52	0x37	55
53	0xfc	-4
54	0x03	3
55	0x05	5
56	0x23	35
57	0x4d	77
58	0xfb	-5
59	0x06	6
60	0x62	98
61	0xcf	-49
62	0x0a	10
63	0x38	56
64	0x2c	44
65	0x26	38
66	0x48	72
67	0xc0	-64
68	0xea	-22
69	0x0d	13
70	0x59	89
71	0xaa	-86
72	0xc6	-58
73	0xd5	-43
74	0xe1	-31
75	0x39	57
76	0xe5	-27
77	0x08	8
78	0xe5	-27
79	0x23	35
80	0x13	19
81	0x0c	12
82	0xbc	-68
83	0xed	-19
84	0x4c	76
85	0x04	4
86	0x20	32
87	0xf9	-7
88	0xf9	-7
89	0xfd	-3
90	0xf0	-16
91	0x0e	14
92	0x6a	106
93	0xec	-20
94	0x35	53
95	0x4e	78
96	0x49	73
97	0x31	49
98	0xf5	-11
99	0xd0	-48
100	0xc3	-61
101	0xed	-19
102	0xde	-34
103	0xe9	-23
104	0x08	8
105	0xf3	-13
106	0x22	34
107	0xb4	-76
108	0x36	54
109	0x2e	46
110	0xe8	-24
111	0x0e	14
112	0x02	2
113	0xc2	-62
114	0xff	-1
115	0x05	5
116	0x5c	92
117	0xb6	-74
118	0xea	-22
119	0x35	53
120	0x07	7
121	0xfe	-2
122	0x2f	47
123	0x29	41
124	0xaa	-86
125	0xde	-34
126	0xec	-20
127	0x13	19
128	0x21	33
129	0xba	-70
130	0x29	41
131	0xd5	-43
132	0xfd	-3
133	0x1e	30
134	0xd2	-46
135	0xf9	-7
136	0xea	-22
137	0x0f	15
138	0x38	56
139	0xf9	-7
140	0x1c	28
141	0xa0	-96
142	0x2a	42
143	0xf4	-12
144	0xbc	-68
145	0xdb	-37
146	0xf9	-7
147	0xb9	-71
148	0xc2	-62
149	0xb9	-71
150	0x3b	59
151	0xc3	-61
152	0xa7	-89
153	0xaf	-81
154	0xc9	-55
155	0x2a	42
156	0x20	32
157	0x1b	27
158	0xad	-83
159	0xee	-18
160	0xe5	-27
161	0x06	6
162	0x08	8
163	0x0c	12
164	0x08	8
165	0xdb	-37
166	0xe5	-27
167	0x21	33
168	0xf7	-9
169	0xc6	-58
170	0xc6	-58
171	0x19	25
172	0x35	53
173	0xaf	-81
174	0x13	19
175	0x15	21
176	0x7b	123
177	0x86	-122
178	0x19	25
179	0xcf	-49
180	0xca	-54
181	0x0c	12
182	0x63	99
183	0x16	22
184	0xe3	-29
185	0xd7	-41
186	0x0e	14
187	0xc8	-56
188	0xb8	-72
189	0xfd	-3
190	0xe0	-32
191	0x3e	62
192	0xaf	-81
193	0x48	72
194	0xf8	-8
195	0xe4	-28
196	0xc8	-56
197	0x56	86
198	0xb8	-72
199	0x0e	14
200	0xed	-19
201	0xf6	-10
202	0x01	1
203	0xdc	-36
204	0x79	121
205	0xfe	-2
206	0xd1	-47
207	0xbc	-68
208	0x33	51
209	0x61	97
210	0xae	-82
211	0x5b	91
212	0xb6	-74
213	0xd8	-40
214	0xd3	-45
215	0xf7	-9
216	0xf4	-12
217	0xe5	-27
218	0xf1	-15
219	0x05	5
220	0xf5	-11
221	0x61	97
222	0x40	64
223	0xf7	-9
224	0x21	33
225	0x39	57
226	0xd2	-46
227	0x20	32
228	0xf3	-13
229	0x54	84
230	0xc5	-59
231	0xbc	-68
232	0xc2	-62
233	0x18	24
234	0xfe	-2
235	0xc5	-59
236	0x9e	-98
237	0x01	1
238	0xec	-20
239	0xd4	-44
240	0x19	25
241	0xd4	-44
242	0x29	41
243	0xb9	-71
244	0xfb	-5
245	0xfc	-4
246	0x13	19
247	0x0d	13
248	0x18	24
249	0xb4	-76
250	0xfd	-3
251	0x7f	127
252	0x3e	62
253	0x49	73
254	0xb7	-73
255	0xe4	-28

tfl.pseudo_qconst3 i1 [128, 128]
0	0xfa	-6
1	0x47	71
2	0x14	20
3	0x5e	94
4	0x0c	12
5	0x4c	76
6	0x04	4
7	0x46	70
8	0x43	67
9	0xfe	-2
10	0x18	24
11	0xd1	-47
12	0xb3	-77
13	0xcc	-52
14	0x5a	90
15	0xe8	-24
16	0x0d	13
17	0xac	-84
18	0xe3	-29
19	0xa2	-94
20	0x54	84
21	0xc5	-59
22	0x1e	30
23	0xb5	-75
24	0x3c	60
25	0x10	16
26	0xf9	-7
27	0x5e	94
28	0xea	-22
29	0x04	4
30	0xc9	-55
31	0x18	24
32	0x00	0
33	0xc9	-55
34	0x19	25
35	0x3a	58
36	0xee	-18
37	0x4e	78
38	0xf0	-16
39	0xf4	-12
40	0x35	53
41	0x5f	95
42	0xf4	-12
43	0xd4	-44
44	0xb1	-79
45	0xb9	-71
46	0xe2	-30
47	0x58	88
48	0x30	48
49	0xbf	-65
50	0x1f	31
51	0x2f	47
52	0x04	4
53	0xf2	-14
54	0x2f	47
55	0x42	66
56	0xc2	-62
57	0x52	82
58	0xfb	-5
59	0xf9	-7
60	0x1c	28
61	0xc5	-59
62	0x15	21
63	0x24	36
64	0xcc	-52
65	0xeb	-21
66	0x79	121
67	0x19	25
68	0x04	4
69	0x16	22
70	0xd9	-39
71	0x55	85
72	0xb4	-76
73	0xff	-1
74	0x5f	95
75	0x38	56
76	0xb3	-77
77	0x10	16
78	0x06	6
79	0x5c	92
80	0x0a	10
81	0xb6	-74
82	0x18	24
83	0x55	85
84	0xb3	-77
85	0xca	-54
86	0x21	33
87	0x27	39
88	0x29	41
89	0xf6	-10
90	0x52	82
91	0x37	55
92	0xbe	-66
93	0x40	64
94	0x7f	127
95	0xae	-82
96	0xff	-1
97	0x42	66
98	0x05	5
99	0x68	104
100	0xec	-20
101	0x2c	44
102	0x68	104
103	0x4a	74
104	0x06	6
105	0x52	82
106	0x15	21
107	0xd6	-42
108	0xb5	-75
109	0xe7	-25
110	0x67	103
111	0x33	51
112	0x28	40
113	0x2a	42
114	0xe7	-25
115	0x93	-109
116	0x45	69
117	0xcf	-49
118	0x18	24
119	0xcd	-51
120	0x5a	90
121	0xee	-18
122	0xbb	-69
123	0x78	120
124	0xda	-38
125	0x1c	28
126	0x35	53
127	0xb5	-75
128	0x1f	31
129	0xe2	-30
130	0x04	4
131	0xc7	-57
132	0xe4	-28
133	0x49	73
134	0xc7	-57
135	0xf1	-15
136	0x36	54
137	0xd6	-42
138	0xdf	-33
139	0xfe	-2
140	0xe2	-30
141	0x1e	30
142	0xce	-50
143	0x1a	26
144	0x47	71
145	0x23	35
146	0xca	-54
147	0x42	66
148	0xf0	-16
149	0xf6	-10
150	0x47	71
151	0xbb	-69
152	0x3c	60
153	0x04	4
154	0x26	38
155	0xe9	-23
156	0xd2	-46
157	0xcf	-49
158	0x21	33
159	0x48	72
160	0xff	-1
161	0xcc	-52
162	0xc9	-55
163	0x25	37
164	0x1d	29
165	0xe9	-23
166	0xd1	-47
167	0x08	8
168	0x49	73
169	0x05	5
170	0xdd	-35
171	0xed	-19
172	0x3c	60
173	0x33	51
174	0xbe	-66
175	0x1f	31
176	0xc0	-64
177	0x04	4
178	0x13	19
179	0xd8	-40
180	0x42	66
181	0x50	80
182	0xd3	-45
183	0xd4	-44
184	0x16	22
185	0x0d	13
186	0x3f	63
187	0xf7	-9
188	0x3c	60
189	0x29	41
190	0xbc	-68
191	0xfe	-2
192	0x60	96
193	0x0d	13
194	0xdf	-33
195	0xfb	-5
196	0x53	83
197	0x3a	58
198	0xfb	-5
199	0xe7	-25
200	0x01	1
201	0xf5	-11
202	0xc2	-62
203	0x23	35
204	0xe5	-27
205	0x04	4
206	0xcd	-51
207	0xdf	-33
208	0x11	17
209	0xe3	-29
210	0x33	51
211	0xf3	-13
212	0x47	71
213	0x14	20
214	0x42	66
215	0xb9	-71
216	0x19	25
217	0x47	71
218	0xbf	-65
219	0x19	25
220	0x11	17
221	0x37	55
222	0x1f	31
223	0xc1	-63
224	0xff	-1
225	0x29	41
226	0x35	53
227	0x12	18
228	0xde	-34
229	0x12	18
230	0x33	51
231	0x33	51
232	0x28	40
233	0xf3	-13
234	0xea	-22
235	0xeb	-21
236	0x07	7
237	0x3d	61
238	0xb4	-76
239	0xe6	-26
240	0xfc	-4
241	0xf1	-15
242	0xed	-19
243	0x6e	110
244	0x07	7
245	0xe4	-28
246	0xe0	-32
247	0xc2	-62
248	0x24	36
249	0xf9	-7
250	0x1d	29
251	0xc2	-62
252	0x7f	127
253	0x14	20
254	0x2a	42
255	0x1e	30

tfl.pseudo_qconst4 i1 [98, 64] scale=0.0024330062 zero_point=0
0	0xf4	-0.029196074
1	0x0f	0.036495093
2	0xf6	-0.02433006
3	0xfd	-0.0072990186
4	0x01	0.0024330062
5	0x0b	0.026763069
6	0xfb	-0.01216503
7	0xfb	-0.01216503
8	0x06	0.014598037
9	0xf8	-0.01946405
10	0xfa	-0.014598037
11	0x0e	0.034062088
12	0xfb	-0.01216503
13	0xfc	-0.009732025
14	0xfb	-0.01216503
15	0x0e	0.034062088
16	0x09	0.021897055
17	0x02	0.0048660124
18	0x12	0.04379411
19	0x02	0.0048660124
20	0xfc	-0.009732025
21	0x03	0.0072990186
22	0x02	0.0048660124
23	0xfa	-0.014598037
24	0xf8	-0.01946405
25	0x03	0.0072990186
26	0x02	0.0048660124
27	0x02	0.0048660124
28	0xfd	-0.0072990186
29	0x0d	0.03162908
30	0xfe	-0.0048660124
31	0xf6	-0.02433006
32	0x0d	0.03162908
33	0x03	0.0072990186
34	0x0d	0.03162908
35	0xf6	-0.02433006
36	0x11	0.041361105
37	0x01	0.0024330062
38	0x07	0.017031044
39	0xf9	-0.017031044
40	0x0a	0.02433006
41	0xf1	-0.036495093
42	0x0e	0.034062088
43	0x0c	0.029196074
44	0x00	0.0
45	0x0c	0.029196074
46	0x0f	0.036495093
47	0x07	0.017031044
48	0xfb	-0.01216503
49	0x10	0.0389281
50	0xfe	-0.0048660124
51	0xed	-0.046227116
52	0x00	0.0
53	0x04	0.009732025
54	0x05	0.01216503
55	0xfc	-0.009732025
56	0x0d	0.03162908
57	0x0a	0.02433006
58	0x08	0.01946405
59	0x0c	0.029196074
60	0x04	0.009732025
61	0xf9	-0.017031044
62	0x09	0.021897055
63	0xf7	-0.021897055
64	0xf4	-0.029196074
65	0x0c	0.029196074
66	0xfa	-0.014598037
67	0xef	-0.041361105
68	0x05	0.01216503
69	0xfb	-0.01216503
70	0x04	0.009732025
71	0xf4	-0.029196074
72	0xfb	-0.01216503
73	0x13	0.046227116
74	0xfe	-0.0048660124
75	0xee	-0.04379411
76	0xfd	-0.0072990186
77	0x06	0.014598037
78	0x02	0.0048660124
79	0x0d	0.03162908
80	0x07	0.017031044
81	0xf8	-0.01946405
82	0x02	0.0048660124
83	0x12	0.04379411
84	0xfe	-0.0048660124
85	0xed	-0.046227116
86	0xf4	-0.029196074
87	0x01	0.0024330062
88	0x11	0.041361105
89	0x06	0.014598037
90	0x04	0.009732025
91	0xf2	-0.034062088
92	0x09	0.021897055
93	0x00	0.0
94	0xec	-0.04866012
95	0x08	0.01946405
96	0x0b	0.026763069
97	0x00	0.0
98	0xf4	-0.029196074
99	0x11	0.041361105
100	0xef	-0.041361105
101	0x00	0.0
102	0x0d	0.03162908
103	0xf0	-0.0389281
104	0x0b	0.026763069
105	0xfe	-0.0048660124
106	0xfd	-0.0072990186
107	0xf1	-0.036495093
108	0x07	0.017031044
109	0xef	-0.041361105
110	0x0f	0.036495093
111	0x08	0.01946405
112	0xfd	-0.0072990186
113	0xf5	-0.026763069
114	0xf6	-0.02433006
115	0x14	0.04866012
116	0x11	0.041361105
117	0x00	0.0
118	0xf7	-0.021897055
119	0x0b	0.026763069
120	0x10	0.0389281
121	0x09	0.021897055
122	0xf7	-0.021897055
123	0xfc	-0.009732025
124	0xef	-0.041361105
125	0xf5	-0.026763069
126	0xf2	-0.034062088
127	0xfb	-0.01216503
128	0x11	0.041361105
129	0xfe	-0.0048660124
130	0x21	0.08028921
131	0xf9	-0.017031044
132	0xde	-0.08272221
133	0xf0	-0.0389281
134	0xe3	-0.07055718
135	0xf1	-0.036495093
136	0x09	0.021897055
137	0x15	0.05109313
138	0xee	-0.04379411
139	0xef	-0.041361105
140	0x03	0.0072990186
141	0xf7	-0.021897055
142	0xef	-0.041361105
143	0xed	-0.046227116
144	0xe8	-0.05839215
145	0x27	0.09488724
146	0xdb	-0.09002123
147	0x07	0.017031044
148	0xf0	-0.0389281
149	0xf9	-0.017031044
150	0xe0	-0.0778562
151	0xf8	-0.01946405
152	0x1a	0.06325816
153	0xf5	-0.026763069
154	0xe0	-0.0778562
155	0xfb	-0.01216503
156	0x21	0.08028921
157	0x00	0.0
158	0x14	0.04866012
159	0x23	0.08515522
160	0x00	0.0
161	0xfc	-0.009732025
162	0x05	0.01216503
163	0x00	0.0
164	0x18	0.05839215
165	0xe8	-0.05839215
166	0xea	-0.053526137
167	0x09	0.021897055
168	0x23	0.08515522
169	0xfa	-0.014598037
170	0xef	-0.041361105
171	0x15	0.05109313
172	0xf5	-0.026763069
173	0x25	0.09002123
174	0xe0	-0.0778562
175	0x05	0.01216503
176	0x1d	0.07055718
177	0xe0	-0.0778562
178	0x14	0.04866012
179	0x15	0.05109313
180	0xfe	-0.0048660124
181	0x16	0.053526137
182	0xf7	-0.021897055
183	0x04	0.009732025
184	0x0b	0.026763069
185	0xdb	-0.09002123
186	0xe7	-0.060825154
187	0x03	0.0072990186
188	0x03	0.0072990186
189	0xee	-0.04379411
190	0xe8	-0.05839215
191	0x13	0.046227116
192	0x0b	0.026763069
193	0x0f	0.036495093
194	0x11	0.041361105
195	0x13	0.046227116
196	0x06	0.014598037
197	0x0e	0.034062088
198	0x0c	0.029196074
199	0xfc	-0.009732025
200	0x06	0.014598037
201	0xfb	-0.01216503
202	0xfc	-0.009732025
203	0xf7	-0.021897055
204	0xf3	-0.03162908
205	0x0a	0.02433006
206	0xf4	-0.029196074
207	0xf3	-0.03162908
208	0xfd	-0.0072990186
209	0x0f	0.036495093
210	0xfc	-0.009732025
211	0x05	0.01216503
212	0x14	0.04866012
213	0xfb	-0.01216503
214	0x01	0.0024330062
215	0x06	0.014598037
216	0x0d	0.03162908
217	0x0a	0.02433006
218	0xec	-0.04866012
219	0x08	0.01946405
220	0xf3	-0.03162908
221	0x0d	0.03162908
222	0xf3	-0.03162908
223	0x1d	0.07055718
224	0xfc	-0.009732025
225	0x08	0.01946405
226	0xf1	-0.036495093
227	0xfd	-0.0072990186
228	0x10	0.0389281
229	0xe9	-0.055959143
230	0x12	0.04379411
231	0x07	0.017031044
232	0x29	0.09975325
233	0x10	0.0389281
234	0x05	0.01216503
235	0xe2	-0.07299019
236	0x0a	0.02433006
237	0x01	0.0024330062
238	0xee	-0.04379411
239	0xf6	-0.02433006
240	0x1c	0.068124175
241	0xe8	-0.05839215
242	0xf9	-0.017031044
243	0x15	0.05109313
244	0x04	0.009732025
245	0xf8	-0.01946405
246	0xef	-0.041361105
247	0x07	0.017031044
248	0x0c	0.029196074
249	0x0e	0.034062088
250	0x06	0.014598037
251	0x09	0.021897055
252	0x0e	0.034062088
253	0x07	0.017031044
254	0xe2	-0.07299019
255	0x00	0.0
